…
A: 0s87638016/94653016 [==========================>...] - ETA: 0s92717056/94653016 [============================>.] - ETA: 0s94658560/94653016 [==============================] - 1s 0us/step
_________________________________________________________________
Layer (type)                 Output Shape              Param #   
=================================================================
resnet50 (Model)             (None, 13, 10, 2048)      23587712  
_________________________________________________________________
conv2d_1 (Conv2D)            (None, 11, 9, 512)        6291968   
_________________________________________________________________
conv2d_2 (Conv2D)            (None, 9, 8, 256)         786688    
_________________________________________________________________
conv2d_3 (Conv2D)            (None, 7, 7, 128)         196736    
_________________________________________________________________
conv2d_4 (Conv2D)            (None, 5, 6, 64)          49216     
_________________________________________________________________
flatten_1 (Flatten)          (None, 1920)              0         
_________________________________________________________________
dense_1 (Dense)              (None, 256)               491776    
_________________________________________________________________
dense_2 (Dense)              (None, 8)                 2056      
=================================================================
Total params: 31,406,152
Trainable params: 31,353,032
Non-trainable params: 53,120
_________________________________________________________________
Trainable layers:
<keras.engine.training.Model object at 0x7ffedc09eac8> False
<keras.layers.convolutional.Conv2D object at 0x7fff22b1c198> True
<keras.layers.convolutional.Conv2D object at 0x7ffe845fbf60> True
…
