…
A: 0s93536256/94653016 [============================>.] - ETA: 0s94445568/94653016 [============================>.] - ETA: 0s94658560/94653016 [==============================] - 6s 0us/step
_________________________________________________________________
Layer (type)                 Output Shape              Param #   
=================================================================
resnet50 (Model)             (None, 21, 14, 2048)      23587712  
_________________________________________________________________
conv2d_1 (Conv2D)            (None, 19, 13, 512)       6291968   
_________________________________________________________________
conv2d_2 (Conv2D)            (None, 17, 12, 256)       786688    
_________________________________________________________________
conv2d_3 (Conv2D)            (None, 15, 11, 128)       196736    
_________________________________________________________________
conv2d_4 (Conv2D)            (None, 13, 10, 64)        49216     
_________________________________________________________________
flatten_1 (Flatten)          (None, 8320)              0         
_________________________________________________________________
dense_1 (Dense)              (None, 256)               2130176   
_________________________________________________________________
dense_2 (Dense)              (None, 8)                 2056      
=================================================================
Total params: 33,044,552
Trainable params: 32,991,432
Non-trainable params: 53,120
_________________________________________________________________
Trainable layers:
<keras.engine.training.Model object at 0x7ffeac72f8d0> False
<keras.layers.convolutional.Conv2D object at 0x7ffeac6cc860> True
<keras.layers.convolutional.Conv2D object at 0x7ffe9c5f6fd0> True
…
